model.pt (torch, 689253 bytes, 12 tensors)

CNN_layers.0.weight f4 [16, 3, 3, 3]
000000 52 f8 89 bd a6 18 ee bd 89 cc 1d bd cb 75 22 be
       -0.067368165 -0.11625795 -0.038525138 -0.15865247
000010 77 a6 d2 3c af 8e 82 bd 31 88 3a be 98 55 16 bd
       0.025714142 -0.06374871 -0.18216015 -0.036702722
000020 a1 fa f1 bd 37 ee 46 be 71 f7 5d 3d f0 fb 34 3e
       -0.11815382 -0.19426809 0.054191057 0.17674232
000030 74 e6 06 be 90 71 dd bb fe b2 2c be c7 e9 2d be
       -0.13173848 -0.0067579225 -0.16865155 -0.1698371
000040 48 3b 31 3e 99 85 b7 3d ea d3 41 be 11 78 4f be
       0.1730777 0.089610286 -0.18928495 -0.20260645
000050 77 d9 15 be 85 bd 14 be 97 81 15 3e f3 5d dc bc
       -0.14633738 -0.14525421 0.14600216 -0.026900267
000060 72 c9 f5 3c 04 64 9e 3c 99 bc 14 be ce ef 50 3d
       0.030003283 0.0193348 -0.1452507 0.051009946
000070 54 5b eb 3c 65 4c d5 bd b7 a3 0c be 8f 1c f5 3d
       0.028730072 -0.10414962 -0.13734327 0.11968338
000080 a3 c7 27 3e f4 2d f2 bd c7 ff 05 bd 0e 53 fc bc
       0.16384749 -0.11825171 -0.03271463 -0.030801322
000090 8a a7 a8 3c 4f a4 26 3e b3 e5 17 3e 78 73 c7 bd
       0.020587701 0.16273616 0.14833717 -0.09738821
0000a0 e3 1b 5e bd e0 8f a7 3d a6 85 ba b9 78 0d e3 bd
       -0.054225814 0.08181739 -0.0003557626 -0.11086553
0000b0 33 ca 13 3d bb 8e 70 3d c1 c0 cb 3d ce 70 99 3d
       0.036081504 0.05872987 0.09948874 0.07492219
0000c0 21 29 56 3d 85 70 fe bd 97 cf 93 bd 54 6c 4a be
       0.052285317 -0.12423805 -0.07217329 -0.19767886
0000d0 37 af 3d be 60 a1 bc bd 00 7e 21 be 9c fd 31 3e
       -0.1852387 -0.09210467 -0.15770721 0.173819
0000e0 8b 9d 7f bd 34 53 0a 3e 97 0d 01 be b0 4f ec 3d
       -0.062406104 0.13508302 -0.1260284 0.11538637
0000f0 ec ba f4 bd cd 1e 3d 3e 69 94 29 3e f4 04 11 be
       -0.11949715 0.18468781 0.1656052 -0.14162046
000100 4a f3 2e be 9e 5d 2f be 05 65 4f be 70 7a 7a bd
       -0.17084995 -0.17125556 -0.2025338 -0.06115192
000110 e5 92 31 3e 84 90 c4 3d 11 c3 db 3c 19 1d 4e bd
       0.17341192 0.09597877 0.026826413 -0.05032072
000120 7b b5 6f be 1c d9 71 3b f1 15 f8 bd 5a 20 8e 3d
       -0.23409073 0.003690309 -0.1211356 0.06939764
000130 8a 6d a9 3d 0a f4 f4 3d cf 00 c8 bd ff 38 ce bd
       0.08272846 0.11960609 -0.09765779 -0.10069465
000140 b3 d1 3e 3e 34 d3 dd 3d 57 d9 03 3e fc 08 3e 3e
       0.18634681 0.108312994 0.12875877 0.18558115
000150 01 61 17 bd 10 5e f6 bd 26 51 f2 3d f0 f5 e2 3c
       -0.036957745 -0.1202966 0.11831884 0.027705163
000160 4c 30 67 3d 16 9e b7 3d 56 a8 d0 3c 18 03 f6 bd
       0.056442544 0.089656994 0.025470894 -0.12012309
000170 ad 89 91 bd 68 d7 3e 3d c9 84 09 3e 42 e3 f4 bd
       -0.07106338 0.046592146 0.1342956 -0.119574085
000180 0d b1 38 3e 14 e9 91 3d e4 01 14 3c fa a0 32 be
       0.1803629 0.07124534 0.009033654 -0.1744422
000190 18 43 2e be 5d 90 05 be cc 82 78 bc 59 6b 9c 3d
       -0.17017782 -0.13043351 -0.015167903 0.076376624
0001a0 5e 47 50 be 13 72 a9 bd e6 bd c4 bc 67 79 d0 bd
       -0.20339724 -0.08273711 -0.024016332 -0.10179406
0001b0 ec b8 b2 3d 67 64 2e be 5c 77 4d be d8 df 43 be
       0.08726677 -0.17030488 -0.20065063 -0.19128358
0001c0 2a 76 23 bd 6b ed 19 be 1a 1c 9e bd ce 55 c4 bc
       -0.039907612 -0.15031974 -0.07720204 -0.023966696
0001d0 00 f5 20 3e 31 41 15 be bd 6c 2d be fc e0 20 be
       0.1571846 -0.1457565 -0.16936012 -0.15710825
0001e0 48 82 24 bc f0 c9 59 3d 4a 69 e7 bb 97 43 b6 3d
       -0.010040827 0.0531711 -0.007062112 0.088996105
0001f0 40 8e 2c 3e 23 a4 14 be 20 62 4c bc 7f 3b 3a 3e
       0.16851139 -0.14515738 -0.012474567 0.18186758
000200 c3 3d 1e be 3a 63 c4 3c 49 6a 45 3e a5 aa 29 3e
       -0.15453248 0.023973096 0.19278826 0.16569002
000210 00 12 df 3d 10 b0 b3 bc 51 ae 42 3e c5 d8 4e bd
       0.10892105 -0.02193454 0.19011809 -0.050499696
000220 20 2e 32 3e 90 4f 26 3e ca bd 52 3e 67 6c 5a 3e
       0.17400408 0.16241288 0.20580211 0.21330415
000230 96 71 d6 bc 4c 70 bb bd 52 b9 09 3d 2a af d0 3d
       -0.026177209 -0.09152278 0.033624 0.1018966
000240 d5 43 8e 3d 59 35 17 3e d4 8e 24 3e 5d 1f 0d 3d
       0.06946532 0.14766444 0.1607011 0.03445374
000250 98 2c 69 3d 3d 4c 48 3e 66 87 d4 3d 3f bf d1 3d
       0.056927294 0.19560333 0.10377388 0.102415554
000260 ed 3b 6d 3b 09 28 54 3e 2c 09 31 3e aa 2b 1e bd
       0.0036199049 0.20718397 0.17288655 -0.03861586
000270 07 73 95 3d 1b 0a 72 3e 8c 80 6f 3d b9 e5 c3 3d
       0.0729733 0.23636667 0.0584722 0.095653005
000280 f8 43 e3 3d e4 45 08 3e 52 3f 45 3e 38 4b 17 3e
       0.110969484 0.13307911 0.19262436 0.14774787
000290 ea c9 9c 3d fd c8 3f 3e a9 4a 47 3e ea f9 34 3e
       0.076556996 0.18729015 0.19462074 0.1767346
0002a0 65 0b e9 3d e6 29 b7 3d f8 02 08 be cb a5 54 3d
       0.113791265 0.08943538 -0.13282382 0.051915925
0002b0 9e 94 04 be f6 f0 dd bd 9f 9d 25 bd f5 43 8a 3b
       -0.12947318 -0.10836975 -0.040433522 0.004219527
0002c0 66 18 b0 bd 5b 8a 57 3d ea 11 42 3d 5a cf c7 bd
       -0.08598404 0.05262218 0.047380365 -0.09756346
0002d0 75 c8 81 bd d1 82 40 be 51 9d 8b bd 6b 49 9c 3d
       -0.06337062 -0.18799902 -0.06817115 0.07631191
0002e0 8f 29 31 be ee 22 79 be 50 7e f6 bc 43 c8 3e 3d
       -0.1730101 -0.24329731 -0.030089527 0.046577703
0002f0 fb e2 72 bd 0d 3a 11 be ae 02 32 3e 67 16 0a 3e
       -0.059298497 -0.14182301 0.17383835 0.13485108
000300 69 2e 2f be e3 7b c8 bc 40 14 21 be bb 97 af 3d
       -0.17107548 -0.024473136 -0.15730381 0.08573862
000310 15 ba f7 3d f7 d1 0c 3e 1b 02 da 3d 7a 3d d3 3c
       0.12096039 0.1375197 0.10644933 0.02578615
000320 b6 7a fe 3d 4a 05 43 3e d2 9c 84 3d 00 2f d9 bc
       0.12425749 0.19044986 0.064752236 -0.02651167
000330 b3 0b 1a be d1 34 f9 3d fc 76 41 bd 02 c3 0b 3e
       -0.15043525 0.12168277 -0.047232613 0.13648608
000340 c0 bb 26 3d ea 76 43 3e 80 e4 0f 3e 82 d6 c0 3d
       0.040706396 0.19088331 0.1405201 0.09415914
000350 67 ca 1d be 4c 5d df bd bf 38 ea 3d 56 e2 85 bc
       -0.15409242 -0.10906467 0.11436605 -0.016343277
000360 54 72 bd 3d 41 7d 8b bc 37 91 56 be 51 31 a1 3d
       0.09250322 -0.0170275 -0.20953833 0.078707345
000370 bc b1 1c be 81 72 71 bd 85 06 e2 3d b9 aa 2b 3e
       -0.15302175 -0.05894709 0.110364 0.16764344
000380 e1 71 fd 3d 3b d4 51 3c e3 52 32 be 3a 56 ec bd
       0.12375236 0.012806947 -0.17414431 -0.11539884
000390 4c 94 08 3d 2c cd 3f be ae 49 a5 3d 1c 7a 06 3e
       0.033344552 -0.1873061 0.08070694 0.13132519
0003a0 73 6a 06 3e f3 b7 97 bd 15 91 03 3e 0a e7 97 bd
       0.13126545 -0.074081324 0.12848313 -0.07417114
0003b0 22 3a 26 be bd 53 2d 3e a6 53 ae bd 29 25 23 be
       -0.16233113 0.16926475 -0.085120484 -0.15932144
0003c0 54 64 05 3d 38 c7 21 3e 5f 8b ee bd ba 33 e8 bc
       0.032566383 0.15798652 -0.11647677 -0.028344978
0003d0 8b 5b 73 bd a6 52 a6 bc e0 01 50 be 9c aa 5a 3d
       -0.059413474 -0.020303082 -0.20313215 0.053385362
0003e0 b7 49 52 bd 7b 3f 12 be f5 28 a3 3d 58 72 37 be
       -0.05133983 -0.14282028 0.07966796 -0.17914712
0003f0 37 cf f0 3d c6 3d 24 be a0 ea ce 3c b0 b2 79 bd
       0.11758273 -0.1603919 0.025258362 -0.060961425

CNN_layers.0.bias f4 [16]
000000 fb e8 e3 3d 0a 74 e7 bd 7e 28 04 be 05 c3 eb bd
       0.11128422 -0.113014296 -0.12906072 -0.115118064
000010 7e a6 4c 3e 38 b5 bd 3d 9b 3a 22 bd ec 17 27 3e
       0.19985387 0.0926308 -0.03960667 0.16317719
000020 ba 7c fd 3d 0a 72 b0 bd 7a 44 b4 bd ae a5 0e be
       0.12377305 -0.08615501 -0.08802123 -0.1393039
000030 5f 94 77 3d 6a da c7 bd 19 30 19 3d 8b b8 84 3d
       0.060444232 -0.09758456 0.037399385 0.06480511

CNN_layers.3.weight f4 [32, 16, 3, 3]
000000 3e c4 03 bc 3c d2 f9 3d 38 78 fa ba 51 7e 6f bd
       -0.008042393 0.12198302 -0.0019109314 -0.058470074
000010 b3 6e c1 3c 7d 38 f6 3c a3 42 57 bc d2 33 94 bd
       0.023612356 0.030056233 -0.013138446 -0.072364464
000020 32 5d 50 3c 6e a9 9d bc 73 21 01 bc d0 c0 48 bb
       0.012717532 -0.01924583 -0.00788151 -0.0030632503
000030 80 4b 85 bd 1c 95 04 3d 05 70 0e 3c 5c 9b 32 bd
       -0.06508541 0.032368764 0.0086937 -0.043605193
000040 c8 92 2d bc 12 ea cb bc 25 00 03 bd fe d1 d3 3b
       -0.010594077 -0.024891887 -0.03198256 0.006464242
000050 11 f5 90 3b e7 ca 32 bc c6 2f 02 3c c8 9a ee bc
       0.0044237454 -0.0109126335 0.00794596 -0.02912654
000060 34 50 db 3b 72 7e 29 3d 5d 95 63 3d 29 5d a3 3c
       0.0066929106 0.041380353 0.055562366 0.019941883
000070 a4 0a 8e 3b 24 9a 20 3a 5f 6c 74 bc 45 99 4b bd
       0.0043347646 0.00061264844 -0.014918416 -0.049706716
000080 6d ac e2 3b 3d e8 b2 3d 2e b6 1e 3c 84 ab 95 3d
       0.0069175274 0.08735702 0.00968699 0.07308105
000090 81 a4 bf 3d c1 1c b3 3d 79 24 b3 3c a4 ba a3 3d
       0.093575485 0.08745719 0.021867977 0.07994583
0000a0 50 fc cd 3d 6e a7 07 3d 04 1b cd 3a 90 8e 6f 3d
       0.100578904 0.033118658 0.001564831 0.058485568
0000b0 95 bf bb bc 44 69 c5 bd 6e 5c 89 3c 5d 33 55 3b
       -0.022918502 -0.096392184 0.016767707 0.0032531836
0000c0 4b 1d 95 bd 7b 32 be bc 19 68 71 bd f4 c7 99 3d
       -0.07280978 -0.02321743 -0.058937166 0.07508841
0000d0 91 67 a8 bc 05 ad 8a bd 9f 6f 3a 3d 19 8b a7 bd
       -0.020557197 -0.06771282 0.045516606 -0.08180828
0000e0 88 bd 61 bd 50 4d 56 3c e7 ca ad bc 72 e1 92 3b
       -0.05511239 0.013079956 -0.021214915 0.0044824416
0000f0 ce 23 ae 3d 0e d3 10 3b cd c0 80 3d 52 86 74 bd
       0.08502923 0.0022098455 0.06286774 -0.05969841
000100 1a 02 b0 bc 89 33 5d 3c f8 4a 89 bd 75 7f a2 bd
       -0.021485377 0.0135010565 -0.06703752 -0.07934467
000110 8f 64 2f bd 60 c0 ef bc 3b 9d c0 bd 72 f4 6d bd
       -0.04282051 -0.029266536 -0.09404989 -0.05809445
000120 fd 58 6f 3c 51 68 d3 bb 56 8f d8 b9 f1 44 5c 3d
       0.014608619 -0.0064516445 -0.00041305524 0.053776685
000130 c1 c4 1c 3d 4b c7 4e 3d 5e 7e 35 3e 5d 54 05 3d
       0.038273577 0.05048303 0.17723987 0.03255116
000140 05 bc 93 3d d3 5e c3 3d 63 51 b5 3d 63 65 ac 3d
       0.07213596 0.09539571 0.08853414 0.084177755
000150 95 87 8e 3b 17 dd 6a 3c e4 1f 77 3c a7 b7 8e bc
       0.0043496587 0.0143349385 0.015083287 -0.017421557
000160 b3 36 92 bc 6e 1a b4 bc 16 8f fb 3c 5f a2 8e 3d
       -0.017848348 -0.021985259 0.030707877 0.069645636
000170 b1 b4 cb bc 90 27 d8 3b b2 c1 2e bd 13 ad a7 bc
       -0.024866434 0.006596513 -0.04266519 -0.02046827
000180 ad aa fd bc 56 33 73 bd 7e 21 8b bd a1 fd 46 3d
       -0.030965174 -0.05937513 -0.067934975 0.048581723
000190 a3 a1 c5 3d 1a 1d 76 3d c7 30 ca bc 3c 89 a1 3d
       0.096499704 0.060086347 -0.024681462 0.078875035
0001a0 82 02 40 3d 26 35 da bc b2 3f 25 3c 48 8a 45 3d
       0.04687739 -0.026636671 0.010085987 0.04822758
0001b0 4f 79 4e 3d 95 dd 81 3d 7f d9 db 3d 6b f3 aa 3c
       0.050408658 0.063410915 0.107348435 0.020868024
0001c0 fb 25 2f 3d 67 dc 56 3d 32 b8 8d bd c1 cb 5f bc
       0.04276083 0.052456286 -0.06919898 -0.013659419
0001d0 cc 7f 33 3d e6 41 93 3d 8a 1d ef 3d ba 7a b5 3d
       0.04382305 0.071903035 0.11675556 0.08861299
0001e0 08 2e 73 3c 73 57 7d 3d 2c 34 80 3d 1b 55 82 bd
       0.014842518 0.061850976 0.06259951 -0.06363889
0001f0 b6 8c 4e 3d 92 af 8b bc 1d 96 10 bd 4d 4f ba bc
       0.05042716 -0.017051492 -0.03529941 -0.022742892
000200 43 39 d4 3c 2c 2d a5 3c 19 62 3a bd 0d 8a 93 bd
       0.02590621 0.020163141 -0.04550371 -0.072040655
000210 7e 92 5a 3d 88 cc d9 3b f5 56 a8 bd f7 a2 98 3c
       0.053362362 0.0066466965 -0.08219711 0.018632395
000220 9e e7 33 bc 31 2c c1 3c da 9d 4a 3d 3e 9f 7f 3c
       -0.010980515 0.023580642 0.049466945 0.015601931
000230 da 46 61 3c 87 70 b2 3d 74 0d 60 3a 88 fc b7 3c
       0.0137498025 0.08712869 0.00085469265 0.022459283
000240 21 b1 d2 bb e3 84 93 bb 9a 8b 4a b9 ab 4b 1b bc
       -0.006429807 -0.0045019253 -0.00019316227 -0.00947849
000250 af 1d 20 bc b9 31 42 bb 82 d2 87 bc 76 d1 09 bc
       -0.009772702 -0.0029631688 -0.01657987 -0.008411756
000260 1c 7f a7 bb ff 8c 31 3a 86 0f 26 ba 10 e8 7d ba
       -0.005111588 0.0006773024 -0.00063347106 -0.0009685764
000270 51 ea 15 3a d8 42 06 ba 5c b3 46 ba 13 5b 92 b9
       0.0005718815 -0.0005121655 -0.0007579827 -0.00027915146
000280 3e 60 47 b9 a8 ca 12 b9 1b 1a e4 39 3e 58 33 3b
       -0.00019013972 -0.0001399914 0.00043507 0.002736583
000290 b6 9c 18 3b 22 db f5 3a d1 ad d4 3a 6a 5e b4 3a
       0.0023286766 0.0018757323 0.0016226118 0.0013761048
0002a0 ed a0 79 3a e0 97 a0 b5 f3 2d 15 39 aa 3d 6e 3a
       0.0009522576 -1.196513e-06 0.00014226865 0.0009088168
0002b0 3d 0c 9a 3a 92 2e aa 3a 3f 78 56 3a 8f bf b9 3a
       0.0011752915 0.001298385 0.000818137 0.0014171469
0002c0 d1 fa 71 3a 1b 4b 17 3a 99 23 93 3a 2b 9d d1 39
       0.0009230795 0.00057713845 0.0011225819 0.00039980686
0002d0 6e 34 03 bb 1f f5 07 bb ee 11 28 bb 64 36 e6 ba
       -0.0020020264 -0.0020745469 -0.0025645453 -0.0017563817
0002e0 02 9c 2f bb 82 42 3a bb 81 8a cf bb 5a a3 dd bb
       -0.0026795869 -0.002842099 -0.0063336496 -0.006763858
0002f0 3e 56 0e bb 21 19 34 3d e2 09 9e 3b 63 ba 4c bb
       -0.0021718885 0.043969277 0.0048229555 -0.0031239025
000300 87 7d 52 bc b3 ec ce bc 7e cc c8 bc f2 36 e2 3c
       -0.012847311 -0.025259351 -0.024511572 0.02761409
000310 70 b0 b9 3c 24 10 1a bd ed 69 48 bb 9b 3b d3 bb
       0.02266714 -0.03761305 -0.0030580715 -0.0064463145
000320 a8 42 06 bc 2f bf dd bb c7 98 9e b9 3d 5c 78 bb
       -0.008194603 -0.0067671756 -0.00030249936 -0.0037896775
000330 92 f0 59 b9 1b 58 dc 3a 98 a0 bd 3b cf 3b ee 3b
       -0.00020784352 0.0016810925 0.0057869665 0.0072703133
000340 06 5e 8a 3c ab bc 2f bc d4 e6 3a 3c ff 53 bf bb
       0.016890537 -0.010726134 0.011407573 -0.0058388705
000350 6f 43 85 bb ed 8d 79 bb 38 78 50 bb ad 07 81 b9
       -0.0040668766 -0.003807898 -0.0031809937 -0.00024610516
000360 82 8f 44 3a 9d 28 0a 3b 89 44 5b 3a 16 a8 03 39
       0.0007498191 0.0021081336 0.00083643995 0.0001255575
000370 46 e5 20 3a 89 28 31 38 c7 68 c4 ba 76 38 b2 ba
       0.000613768 4.223784e-05 -0.0014984839 -0.0013597149
000380 f1 76 c6 3a 19 6e c1 b9 2f 7c d9 b9 1a ea 3c ba
       0.0015141648 -0.00036893858 -0.0004148199 -0.0007206515
000390 97 c9 45 ba 87 08 5f ba cb 20 73 ba 8a fa 0c ba
       -0.0007544993 -0.00085080456 -0.0009274601 -0.00053779094
0003a0 57 2c 64 ba 02 58 84 ba 88 2c ee bc 48 8c 6f bc
       -0.0008704117 -0.0010097029 -0.029073969 -0.014620848
0003b0 04 e9 04 bc 84 87 af bc 70 f4 f5 bc 9a b7 84 3c
       -0.008112196 -0.021426924 -0.030023783 0.01620083
0003c0 fe cd 83 bc 56 3a b5 bc f4 c2 fe bb 68 f8 95 39
       -0.016089436 -0.022122543 -0.007774705 0.00028604572
0003d0 7e 25 da b8 cc 9a 5b b9 50 e1 41 3a 98 4b 24 b9
       -0.000104020335 -0.00020943134 0.000739594 -0.0001566842
0003e0 aa c7 71 b9 21 9a 06 38 27 b4 76 b9 89 c4 91 b8
       -0.00023057932 3.2091633e-05 -0.000235275 -6.950746e-05
0003f0 38 f7 c7 bb 5b 05 49 bb 74 19 a6 bb 63 58 d1 bb
       -0.006102469 -0.0030673358 -0.005068952 -0.0063887103

CNN_layers.3.bias f4 [32]
000000 0d ba 28 3d f5 56 9a bc ae 7f 9f bd a0 63 8c 3d
       0.041193057 -0.018840292 -0.07788025 0.068549395
000010 34 20 1a bc a6 3f 3e 3d 76 e5 87 3c 58 3c 0a b9
       -0.009407092 0.04644742 0.016588908 -0.00013183185
000020 f0 9e bb 3c d0 2f b3 3d 43 25 10 bd 2c bd 4a bd
       0.022902936 0.08749354 -0.035191786 -0.049496815
000030 f4 d0 86 3c 11 f6 3a 3d a6 b9 88 3d e6 36 cc 3d
       0.016457058 0.045644823 0.06676035 0.099714085
000040 9b 51 86 bc 0b ac f2 bc 0e 93 6d 3c 09 2a 00 3c
       -0.016396334 -0.029623052 0.014500393 0.007822522
000050 4c 15 04 bd 16 f1 76 3d a2 54 cd bc 3c 04 bc 3d
       -0.032246873 0.06028851 -0.02506477 0.09180495
000060 06 e6 da 3d 9c c5 1c bd 09 a4 f9 bc ea 5e 12 3d
       0.10688405 -0.038274392 -0.030473726 0.03573505
000070 8f f4 ff bc b1 f3 04 bd 05 3f 11 3d 2e cd 83 3d
       -0.031244544 -0.032458965 0.03546049 0.06435619

CNN_layers.6.weight f4 [32, 32, 3, 3]
000000 94 c4 9f 3d ec c2 77 3d c3 61 9e 3c 5d 6d c4 3c
       0.07801166 0.060488626 0.019333726 0.02397793
000010 25 45 cd 3c 04 87 11 3d 6f 7c 9c bd 9d 71 57 bd
       0.025057385 0.03552915 -0.07640921 -0.052598584
000020 dd aa b2 3b 51 f5 1f 3c af 15 d1 3b b0 af 86 3b
       0.0054524974 0.009763078 0.0063807587 0.004110299
000030 28 a7 f8 3b 9a 67 d7 3b 3e ef 77 3b 4a 47 4d 3b
       0.007588286 0.0065736296 0.0037831808 0.003132301
000040 d7 2e 68 3b 3e 1d c1 3a be 34 55 bc 52 48 b2 3d
       0.003542831 0.0014733446 -0.013013063 0.087052
000050 e4 e8 b9 3d af b7 6f 3d 75 d7 db 3d d4 0f 8b 3d
       0.090776235 0.058524784 0.107344545 0.06790128
000060 47 a1 fb bc f4 0a 91 3d 6c fc ca 38 ea e5 7c bd
       -0.030716551 0.07082167 9.679128e-05 -0.0617427
000070 39 56 0f 3d 21 86 92 3c 6f 5d a9 bc 29 df 2d 3c
       0.034994338 0.017886223 -0.020674435 0.010612288
000080 c6 45 33 bd 7e 3b 9d ba 26 aa 2e 3d a9 09 61 3c
       -0.043767713 -0.001199588 0.042642735 0.013735213
000090 91 4b ac bc 47 72 45 bd 11 88 a5 bd 4d e7 8a 3d
       -0.021032127 -0.048204686 -0.08082593 0.067823984
0000a0 c0 2c 32 bd 7d d1 3b bd c6 57 41 3d 75 50 3e 3c
       -0.04349971 -0.04585408 0.047202848 0.011615862
0000b0 77 05 fe bb e1 85 38 3a 38 2a 8a 3c 43 ab 7d bc
       -0.0077521163 0.00070389925 0.016865835 -0.0154827265
0000c0 39 ff 31 bb 54 9f 9e 3d 1a a9 7c bd 27 7c 91 bc
       -0.0027160181 0.07745233 -0.061684705 -0.017759396
0000d0 4c eb 64 3d 76 22 13 bc 61 0c bf 3c 6a 7f c8 3c
       0.05588846 -0.008980384 0.023321332 0.024474818
0000e0 43 5d 96 3d af 5f 8d 3d 33 37 3d 3d 4b ea 4d 3d
       0.07342007 0.06903016 0.04619522 0.050272267
0000f0 c4 06 4f bd 2f e4 5b bd 6b ce 87 bd bd 44 9a 3c
       -0.05054356 -0.05368441 -0.06631168 0.018831605
000100 b9 95 61 bd 4f 73 bb bd b1 a7 81 3d f4 28 91 bd
       -0.055074427 -0.09152853 0.06330813 -0.07087889
000110 76 56 cd bc 73 11 34 3c 86 ad d1 3c 08 f8 a7 3d
       -0.025065642 0.010990488 0.025595438 0.08201605
000120 b9 39 04 3c 5b cf ec bb 28 a0 b6 bd d9 bb 35 3d
       0.008070403 -0.007226867 -0.08917266 0.0443686
000130 98 ea 35 3d e8 91 04 bd 8d 81 d4 3d a8 40 ac 3d
       0.04441318 -0.03236571 0.10376272 0.0841077
000140 1c d2 eb 3c ac 1d 84 bd 38 ea f4 bb db e5 fe 3b
       0.028786711 -0.06450972 -0.00747421 0.0077788658
000150 c0 e3 cf bd 58 84 80 bc 64 9e 3c bd 9b 57 97 3b
       -0.10150862 -0.015688106 -0.04604949 0.0046185977
000160 bd 75 9b 3d df 3f 73 3d 48 75 13 bd 4d 07 be bd
       0.07590816 0.059387084 -0.03600052 -0.09278736
000170 21 9c 33 bd 05 94 32 3d 91 6c 93 bb ec e6 b6 3c
       -0.043850068 0.043598194 -0.004499026 0.022326909
000180 8e 48 31 3d ae cf 04 bd 2f ac 42 bc 62 38 9b bd
       0.043282084 -0.03242462 -0.011881872 -0.075791135
000190 b4 7a 60 bd 33 dd e9 bd 52 93 85 3d 74 b1 30 3d
       -0.05480452 -0.114191435 0.0652224 0.043137982
0001a0 60 3e 3b 3d 3c ba c2 3d e8 ac f4 3c db 17 8f 3d
       0.045713782 0.09508178 0.029867604 0.06986972
0001b0 32 85 ec bc f5 f3 bd bd a1 c0 2c bd 79 38 61 3d
       -0.028872106 -0.09275047 -0.042175893 0.054985497
0001c0 ea 3c 95 bc 86 4a ae 3c 67 58 9d 3d 1d e8 4c 3d
       -0.018217523 0.02127577 0.07682877 0.050026048
0001d0 6c 95 3c 3d d7 28 79 bd 23 18 b6 bd 36 b1 ef 3c
       0.046040937 -0.060829964 -0.088913225 0.029259305
0001e0 3f 54 d2 3c 85 70 37 bc 51 85 1f 3a d0 11 4e 3d
       0.025674937 -0.01119626 0.00060852343 0.050309956
0001f0 3c 31 44 3d 14 6d 73 bb a1 4b b5 bd 85 59 5e bd
       0.047898516 -0.0037143873 -0.08852316 -0.05428459
000200 69 1e 71 bc ec 27 9d bb 66 5c 09 bd ce 21 7f 3c
       -0.014716723 -0.004796019 -0.033535384 0.0155720245
000210 8c ba 38 bd cd 72 5e bb 30 78 00 bd 68 5c ae bd
       -0.04509978 -0.0033942938 -0.03136462 -0.08513719
000220 d0 22 8b bc 3a db 51 3d 33 9d 7f bd 9d 11 ac 3c
       -0.016984373 0.05123446 -0.062405776 0.021004492
000230 59 59 18 3d 23 1c de bd 8f 89 15 bd bc fa 10 3d
       0.037194584 -0.108452104 -0.03650814 0.03539537
000240 50 d3 16 bb e7 5a cc bb c4 4b c6 3a 26 b0 7b 39
       -0.0023014136 -0.0062364223 0.0015128781 0.00024002846
000250 3a 59 05 39 9d 91 b1 3a 98 ca 99 3a ab 53 a4 b9
       0.00012717108 0.0013547424 0.0011733351 -0.00031342855
000260 10 b8 57 3c 86 ca 7b bd b3 60 10 bd f4 58 7c bd
       0.0131664425 -0.06147244 -0.03524847 -0.06160827
000270 6f 0a 23 3c b8 23 4b bd 52 80 ca bd 8e 8f be 3d
       0.009951218 -0.04959461 -0.098877564 0.09304725
000280 cf 4f 15 bc 8f 7e 99 3d 6d de 89 bd eb 93 20 3d
       -0.009113266 0.07494842 -0.067318775 0.039203566
000290 18 c6 80 3d 52 2c ae bd 27 83 dc 3c c8 e7 b9 3c
       0.062877834 -0.08504547 0.026918007 0.02269353
0002a0 b4 dc 41 bd 2e 76 89 bc 26 ca 28 3c 75 22 86 3d
       -0.04732962 -0.016779985 0.010302102 0.06549541
0002b0 38 e6 50 3d c5 d6 7b 3d 40 98 3b 3d b7 4e ed 3d
       0.051000804 0.061484117 0.045799494 0.11587279
0002c0 80 95 cf 3d f6 e9 b0 bc 68 5a fc ba 49 6a 4c 3d
       0.10135937 -0.021595936 -0.0019253017 0.04990605
0002d0 65 6e 9b 3c 30 3a 83 3b c0 f7 ee 3c e1 a9 8e 3c
       0.018973539 0.004004739 0.02917087 0.017414989
0002e0 be db ae bc 40 be 7d 3d c2 34 26 bd 42 a1 8a bc
       -0.021345016 0.061949015 -0.040577658 -0.016922597
0002f0 29 59 30 bd 82 38 6f 3d e1 d2 b6 3d a3 fc 96 3d
       -0.04305378 0.0584035 0.08926941 0.073724054
000300 a3 08 16 3d 45 cb 03 bd d3 ad 82 3b 8b 1c aa bc
       0.03662933 -0.032176275 0.0039880066 -0.020765563
000310 7b dd 14 bd f0 4c 5c bc a2 0c b8 3d 08 7e 72 3d
       -0.036344033 -0.013446078 0.089867845 0.059202224
000320 6a 38 68 3d dc 13 07 bd 39 ee 35 bd d5 78 4f bd
       0.056694426 -0.032977924 -0.04441664 -0.050652344
000330 ef 04 5f bd 52 e9 bf bd 37 18 86 bc ec 1b 3a bd
       -0.054448064 -0.09370674 -0.016368968 -0.045436785
000340 7d 41 10 bd a1 55 1f bc 6b 9b 1b 3d 31 b3 a4 bb
       -0.035218704 -0.009725005 0.037990015 -0.005026244
000350 2c 47 0a 3d 0b 32 07 3e 1c 5d 7c 3c eb 9f 60 bc
       0.03375928 0.13202684 0.015403058 -0.013710002
000360 52 8f 8d 3c 39 71 92 bd 6c a5 fa bb a6 44 0a 3c
       0.017280255 -0.07150502 -0.0076491144 0.008439219
000370 b9 16 21 3d c1 5a 5a bd 00 01 83 3d a5 9f ca 3d
       0.03932831 -0.053309206 0.06396675 0.09893731
000380 19 af e1 3b ff c2 6a 3c 09 74 84 3b 10 11 21 3c
       0.0068873283 0.014328717 0.004042153 0.009830728
000390 45 ac 22 3c b3 4a 91 3b 5d b1 8f 3c 10 75 01 3c
       0.009928768 0.0044339537 0.017540628 0.007901445
0003a0 e1 7b 88 3b 26 7c 91 3c c1 f7 0a 3c 84 a4 6e bd
       0.004165158 0.017759394 0.008481921 -0.058262363
0003b0 b2 fa 57 bd b6 66 a4 3d 68 42 94 3d 65 fa dc bc
       -0.052729316 0.08027403 0.072392285 -0.026974866
0003c0 94 b6 4b 3d 18 7d a0 3d 9a e1 90 3d 60 36 25 3d
       0.049734667 0.0783636 0.0707428 0.04033506
0003d0 73 68 85 bc f2 5f 1d 3d 3b a1 9e bc a3 7a 66 bd
       -0.016285157 0.03842158 -0.01936399 -0.0562693
0003e0 1a a1 32 3d 04 9c 97 bd a1 c1 d5 bd 59 79 a3 bd
       0.04361067 -0.074028045 -0.104373224 -0.079821296
0003f0 69 cc 81 3c 81 20 d3 3b 75 f6 7b 3d b1 d3 10 bc
       0.01584454 0.0064430838 0.061514337 -0.008839534

CNN_layers.6.bias f4 [32]
000000 11 37 2c 3d 8d b1 30 bd d9 fc 6c 3c eb 9d 76 bd
       0.042044703 -0.043138076 0.01446458 -0.060209196
000010 c8 cc 6d bd a8 d1 66 bd c5 36 06 3d bc 9e 65 3d
       -0.058056623 -0.056352288 0.032767076 0.056059584
000020 8e d8 ae 39 03 6c 9f bc 05 28 db 3c 8a 10 63 bd
       0.00033349212 -0.019460684 0.026752481 -0.055435695
000030 70 09 94 ba 65 74 40 bc 96 8c b2 3c b5 54 c4 bc
       -0.0011294317 -0.011746501 0.021795552 -0.023966173
000040 5e 9a 17 3c 57 3f d7 bc fc 03 0f bd 31 8b b1 3c
       0.009253113 -0.02627532 -0.03491591 0.021672817
000050 c8 68 a4 3c 03 fe 8c 3c af 67 75 3d ea 02 f3 3c
       0.020069495 0.017210966 0.059913334 0.029664475
000060 9a 76 e9 3c 12 b3 e6 3c 7b b6 3e bd 4e c5 fd bc
       0.028498936 0.02816156 -0.046560746 -0.030977871
000070 aa 30 84 b9 8f f8 b4 3c f4 0d a8 bc 3d a1 c5 3c
       -0.0002521326 0.022091178 -0.020514466 0.024124736

CNN_layers.9.weight f4 [32, 32, 3, 3]
000000 dd 0d 9a bd 29 25 78 bd af 2e 58 3d ee 19 85 bd
       -0.075221755 -0.060582314 0.052778896 -0.06499086
000010 fd 29 b1 bd 45 c1 48 bc 43 9c c7 3c 92 25 36 bd
       -0.08650587 -0.01225311 0.024366504 -0.044469424
000020 96 b2 a8 bd 4e 95 f0 bb 38 e7 e1 3c 13 43 ca 3d
       -0.082371876 -0.0073420173 0.027576074 0.09876075
000030 68 fb e4 ba 76 8c 98 bc ff 18 81 3c 79 4b 87 3d
       -0.0017469944 -0.018621664 0.01575899 0.06606192
000040 b9 59 f4 bb 94 e9 8d bd 0d 95 04 bc c1 d0 18 bc
       -0.007456985 -0.06929317 -0.008092177 -0.009327115
000050 51 29 4b bc 5a d7 0d bc f6 be bf 3a e7 de 17 3b
       -0.012399987 -0.008657301 0.0014629054 0.0023173632
000060 da 9a f6 bb 9b e2 90 bb cf 37 8a 3b f4 a3 f1 bc
       -0.007525784 -0.0044215447 0.0042180787 -0.029497124
000070 b6 2f 13 3d 2c 79 81 ba 92 41 1a 3d 75 fe 94 3d
       0.035934173 -0.0009878031 0.03766019 0.07275096
000080 e3 3c 7e bd 88 f3 b8 3d 09 c3 8a 3d 93 78 29 bd
       -0.062069785 0.09030825 0.06775481 -0.041374754
000090 1f e7 33 3d 01 f7 ef bb 30 a9 53 ba 7a 7d 06 3d
       0.043921586 -0.0073231463 -0.0008074222 0.032834508
0000a0 fb 05 d2 ba b6 cf df 3a 60 99 bd 3c 73 05 d6 bc
       -0.0016023511 0.0017075452 0.023144424 -0.026125645
0000b0 4f 8f 5d 3d 1f 54 30 bd e5 5e 0b bd 69 18 5f 3d
       0.054091748 -0.043048974 -0.034026045 0.05446664
0000c0 e0 b3 c9 bd b2 72 36 3d 3e 8e 67 3d 16 13 9a bc
       -0.098487616 0.044542976 0.056532137 -0.018807929
0000d0 b7 c7 8b 3c 52 13 0d bc 15 a1 44 3d 79 be 42 3d
       0.017063005 -0.008610563 0.048005182 0.04754493
0000e0 8d bb 22 ba 91 5f b4 bb 4e 91 ec bc 54 7c 87 b8
       -0.0006207757 -0.0055045565 -0.02887788 -6.4604596e-05
0000f0 02 2f 0a bc 65 00 17 bd d4 f5 84 3b 55 20 c7 3d
       -0.008434059 -0.03686561 0.0040576253 0.09722964
000100 cc ec 0b 3d b1 dd b8 bc 81 8b 92 3d 93 89 6e 3b
       0.034161374 -0.022566648 0.071555145 0.0036397919
000110 98 f2 1a bd 45 bc 10 3d ba 1d f6 bd 8b f2 9c 3c
       -0.03782901 0.035335798 -0.12017389 0.019158622
000120 42 60 42 bd dc be 41 3d 72 ed 7b bd bb 04 37 bd
       -0.04745508 0.04730116 -0.061505742 -0.044682246
000130 0a 45 b3 bb 01 49 0e 3c c9 9d 38 3d af a4 76 3d
       -0.0054708766 0.008684398 0.04507235 0.06021565
000140 96 cc 43 bd 80 32 dc bc d4 fa 0f 3d cc aa f8 3c
       -0.04780253 -0.026879549 0.035151318 0.03035488
000150 57 6f 86 3d 97 dd 5d 3d 34 43 98 bd 60 8a ce 3c
       0.06564205 0.054166403 -0.07434693 0.025212467
000160 24 f4 75 3d 6e f9 bc bc 14 2e 08 3d 70 5d 2c 3d
       0.060047284 -0.023068156 0.03324707 0.042081296
000170 f0 77 0a 3d 93 2d 7f bb b0 b1 89 bd 14 b1 1e 3d
       0.033805788 -0.0038937076 -0.06723344 0.038743094
000180 5c 92 4d bd be 17 78 bd 16 88 c5 3a cd 46 10 bd
       -0.050188407 -0.060569517 0.0015070464 -0.03522377
000190 88 60 5c bd 50 b5 5e 3d e3 ef d3 bd b9 75 81 3d
       -0.053802997 0.05437213 -0.10348489 0.06321282
0001a0 a8 67 96 bc aa 4c 6b bd a1 7c 57 3d 61 ca 3f bc
       -0.018359974 -0.05744616 0.05260909 -0.011705966
0001b0 6a 7c a7 3c 06 a0 f8 bc 01 f7 81 3d a0 aa b6 bc
       0.020445067 -0.030349743 0.063459404 -0.022298157
0001c0 34 3b f6 bb c1 30 89 3d e5 1d f5 3c a7 91 87 bd
       -0.007514382 0.06698752 0.029921481 -0.06619578
0001d0 0e 60 95 bd 10 07 29 bd e0 35 dd 3c 6f c8 2a 3d
       -0.072937116 -0.0412665 0.027003229 0.041695055
0001e0 a1 57 f8 3c e5 31 d3 3c 50 6b 18 3c 7c ed a8 3d
       0.030315222 0.025780628 0.009302929 0.082484215
0001f0 d6 61 bd 3c 11 f5 5b bd 12 df 25 39 3c 91 9f 33
       0.02311794 -0.05370051 0.00015818726 7.4304324e-08
000200 d6 51 df b7 bf c3 6f 37 a6 06 21 34 dd f2 88 b6
       -2.662178e-05 1.4291086e-05 1.4996712e-07 -4.081389e-06
000210 bd 7e 84 36 db 70 ef b6 7e 21 4f b7 d2 12 8f bd
       3.948661e-06 -7.135893e-06 -1.23459595e-05 -0.069860116
000220 45 77 9c bc aa c5 c3 3c 2e 83 7a 3c a1 43 7a 3d
       -0.01909984 0.023897965 0.015290065 0.061099652
000230 60 dd 5e 3c fd 4b 5e bb b4 1c ce 3b 02 5f c1 bd
       0.013602585 -0.0033919804 0.006290043 -0.094419494
000240 18 2e 57 3d ba 3f 95 3c 12 e2 b8 bc 0b e5 88 3d
       0.052534193 0.018218864 -0.022568736 0.066843115
000250 6d b2 f9 b8 c6 0c 1a bd 0f a9 fc bb 12 45 b0 bd
       -0.000119064796 -0.037609838 -0.007710583 -0.08606924
000260 f6 33 3e bd 83 de 0c 3b e3 b8 0c bc b4 e9 5c bc
       -0.046436273 0.0021494932 -0.008589002 -0.013483454
000270 81 e1 ac bc ce 85 5e bb ad 9c 25 bd aa 6b b2 bc
       -0.021103622 -0.0033954266 -0.04043262 -0.021779854
000280 d3 07 0d bd d8 d0 d4 bc 91 5d ff b9 42 ad 29 3b
       -0.03443129 -0.02597849 -0.00048707103 0.0025890623
000290 b0 ae 89 3a e3 6d 26 3b e0 34 85 39 91 69 82 38
       0.0010504331 0.0025395087 0.00025407132 6.218546e-05
0002a0 f3 c9 0b 3c fa 77 83 ba 2f 2e 3b b9 22 08 35 bb
       0.008532035 -0.0010030263 -0.00017850914 -0.0027623256
0002b0 7d b5 37 3b 65 90 de bb 02 2c 62 3b 79 72 53 bc
       0.002803176 -0.0067921155 0.0034511094 -0.01290571
0002c0 73 bb 6f bb ed 56 0b 3c 9c e0 69 bc 0e 64 57 3c
       -0.0036580234 0.008504611 -0.014274742 0.0131464135
0002d0 f3 33 bd bd 6a fa 82 3d 7d 37 58 3d f0 e5 06 bd
       -0.09238424 0.06395419 0.052787293 -0.03293413
0002e0 f6 06 59 3c 24 ea 59 3c 11 e7 a0 3b 26 6c 0b 3c
       0.0132462885 0.013300452 0.0049103578 0.008509671
0002f0 be dc 1e 3c 50 c4 95 3c 2b 62 1f bd 96 cd a5 3b
       0.009696184 0.018282086 -0.03891198 0.005059908
000300 62 3d 20 bd 66 c9 0b bd 75 81 86 3d ba 23 c3 bd
       -0.03912104 -0.034127615 0.06567661 -0.09528299
000310 09 85 1b 3d f1 2f 24 3d 95 a7 f9 3a 75 ec 96 3d
       0.03796867 0.040084783 0.0019047136 0.07369319
000320 aa d9 0a bd 1f ac a1 bc e8 04 25 3d 84 27 1d bc
       -0.033898987 -0.019735394 0.040287882 -0.009591941
000330 18 c4 64 bd 1c 80 81 38 2a c4 aa 3c 36 aa 8a bd
       -0.055851072 6.1750616e-05 0.020845491 -0.067707464
000340 3d c9 3e bd d3 90 d0 bc 1b 8d 29 3d e0 ac 4b 3c
       -0.046578635 -0.025459683 0.041394334 0.012431353
000350 fa 66 8c bd 50 4b 88 3d 22 21 5b 3d b1 b3 85 bd
       -0.06855579 0.0665499 0.053498395 -0.06528414
000360 cd 6f 92 3c 41 d8 07 3c d0 3c 0d 3d e3 0e d9 3b
       0.017875576 0.008291305 0.034481823 0.006624089
000370 15 8b f9 3c 08 32 9f bb c3 13 f8 3c 6a 57 84 3c
       0.030461827 -0.004858259 0.03028286 0.016154964
000380 c5 45 85 3b 33 64 d9 bd 25 8b 20 3c aa aa 21 bd
       0.004067155 -0.106148146 0.0097988 -0.0394694
000390 72 ea 60 3d e3 19 9b 3d 5b 91 4d 3d ef c6 99 3c
       0.054911084 0.07573297 0.05018745 0.018771617
0003a0 5f 17 a9 bc 82 34 af bd f9 f8 25 bd 7a fb 49 bb
       -0.020641027 -0.08554937 -0.040520642 -0.0030820058
0003b0 d1 e5 48 3d fe 33 4a bd 8a b1 4d bd e6 a2 aa 3c
       0.049047295 -0.04936599 -0.050218143 0.02082963
0003c0 39 48 e6 bc d5 32 48 3d 6c 6a 2f bb 4f a3 29 3d
       -0.02811061 0.048876602 -0.0026766313 0.04141551
0003d0 02 b8 e2 bc 9a 3c 52 3d 4d 58 27 bc b7 ee ef bc
       -0.027675632 0.051327325 -0.010213924 -0.029288633
0003e0 01 13 74 3d c6 a6 00 3d 66 bf 95 bd 39 6e 9b 3c
       0.059588436 0.031409048 -0.07311897 0.018973457
0003f0 56 22 96 bc 2e 47 34 bd 5e 56 21 3c 26 bf 90 bd
       -0.01832692 -0.044013195 0.009847252 -0.07067709

CNN_layers.9.bias f4 [32]
000000 42 72 5e bd 49 aa 1b bd cd 55 6d 3b 9d e1 cc 3c
       -0.054308183 -0.038004193 0.0036214471 0.025009925
000010 a6 e0 b0 3c 92 67 4d 3d 22 a6 11 bc 85 52 d0 bc
       0.021591496 0.0501476 -0.008889707 -0.025429973
000020 1f 87 4c bc 20 dc 42 b8 cd 33 34 bd 7c 62 b0 bc
       -0.012483387 -4.645821e-05 -0.043994714 -0.021531336
000030 44 64 8d bd 95 a3 ab 3c 23 9d b8 3c cc 9d 6c bd
       -0.0690389 0.020952025 0.022535866 -0.057767674
000040 1d fc 19 3c e0 1b 15 3d 1c 7d e9 3c 94 96 8e bc
       0.009398487 0.036403537 0.02850204 -0.017405786
000050 8a a6 b1 3b 2b b5 41 bd 79 c2 86 3c 52 68 e9 bb
       0.0054214643 -0.047291916 0.016450154 -0.0071230317
000060 5c 84 12 3d 81 af d4 bb 96 e5 38 bc 13 b1 13 bc
       0.03577076 -0.0064906483 -0.011285206 -0.009014386
000070 a2 be 10 3c 9a 2f 67 3a 21 25 70 bd 9c 44 84 3c
       0.008834513 0.0008819044 -0.05862916 0.016145997

Linear_layers.0.weight f4 [128, 1152]
000000 11 b4 17 bc f2 ac 0e bc a3 e4 95 bb cf e9 ed bb
       -0.00925924 -0.008708226 -0.0045743748 -0.007260538
000010 e3 79 ae bb e6 77 0f bc 20 b4 37 bc 3d bc 97 bb
       -0.0053245886 -0.008756613 -0.011212379 -0.004630594
000020 d7 85 d0 bb 7b f7 40 ba 11 04 a8 bb 0b 5f aa bb
       -0.006363611 -0.0007361096 -0.005127438 -0.0051993183
000030 7b a0 17 bc c9 81 ad bb 86 80 3f bc 7d ca 56 bb
       -0.00925457 -0.0052950126 -0.011688357 -0.00327745
000040 b9 d3 09 bc 46 74 2e bb 31 65 eb bb c4 48 c1 bb
       -0.008412295 -0.0026619597 -0.007183694 -0.005898567
000050 ff ff 3b bb ab 4c e3 bb 03 fc 02 b8 03 ad cf bb
       -0.002868652 -0.00693663 -3.122912e-05 -0.0063377633
000060 72 96 06 bc bd cf 0d bc 57 c2 32 bb ba 8c b9 bb
       -0.00821458 -0.008655486 -0.002727648 -0.005662528
000070 61 ee ef 36 34 67 f3 bb bf a6 29 bc 18 6c 15 bc
       7.150506e-06 -0.0074280743 -0.010354697 -0.00912001
000080 f1 c9 af bb df 34 da bb 0a 9d 88 bb fa c1 5a bc
       -0.0053646495 -0.0066591348 -0.004169111 -0.013351912
000090 47 26 c1 bb c9 e2 51 bb b3 ad 18 bc 1c 1b 10 bc
       -0.0058944556 -0.0032026044 -0.009318757 -0.008795526
0000a0 89 9e 07 bc 41 78 a9 bb ff 75 eb bb c7 5a 27 bb
       -0.008277544 -0.005171806 -0.007185697 -0.0025536285
0000b0 59 bd 0b bb 36 db ee bb 09 0a e6 bb 7b fe e2 bb
       -0.0021322577 -0.0072893156 -0.0070202393 -0.006927309
0000c0 6d 6a af bb cc 96 26 bc 85 68 c5 bb fc 54 19 bc
       -0.005353263 -0.010167789 -0.0060244226 -0.009358641
0000d0 fa 1f b5 bb 2a ba 37 bc 4e aa 77 ba 8f e1 50 bb
       -0.0055274935 -0.011213819 -0.00094476796 -0.0031872725
0000e0 2f 65 25 bc 93 bf db bb 0e 35 ec bb 1c 07 45 bc
       -0.010094925 -0.006706187 -0.007208473 -0.012025621
0000f0 64 d5 be bb 0e 1f f2 ba c4 0f b1 bb 0a 03 fc b8
       -0.005823778 -0.001847239 -0.0054034907 -0.000120168625
000100 df 91 cc bb 43 7a 4f bc f2 7c 24 bc 06 19 90 bb
       -0.006242975 -0.012663427 -0.010039555 -0.0043975143
000110 02 8d 5b bb a2 49 f8 ba 73 fe 0d bc bf 9b dc bb
       -0.0033500795 -0.0018942843 -0.008666622 -0.0067324336
000120 d3 7d b9 bb ac 26 70 bb 1b 2e b2 b9 b0 e6 73 bb
       -0.0056607514 -0.0036644144 -0.00033985157 -0.0037216358
000130 0c 00 7e bb 95 c5 9c bb 7e 1e 7b bb a2 33 5b bb
       -0.0038757352 -0.004784296 -0.0038317735 -0.0033447524
000140 18 37 26 b9 aa a1 86 bb 01 91 86 bb 54 57 ee bb
       -0.00015851518 -0.0041086273 -0.0041066413 -0.007273594
000150 b6 6d 91 bb dc 17 bc bb f7 d1 1c b9 69 c8 db bb
       -0.0044381274 -0.005740149 -0.00014955537 -0.0067072404
000160 e0 98 c6 ba 31 0b 37 bc 05 da aa bb 98 93 e6 b8
       -0.0015151761 -0.011172102 -0.0052139782 -0.00010994746
000170 0e f1 6b b8 d5 6f 25 bb 60 b0 46 3b 02 0e 56 bc
       -5.6252866e-05 -0.002524366 0.003031753 -0.013064863
000180 dc f2 f3 bb b0 fd 12 38 b6 1f b2 ba 74 a3 0b ba
       -0.0074447226 3.5045377e-05 -0.0013589773 -0.00053267856
000190 c3 b7 ef ba 26 15 4f bc 37 1c 04 bc cb 9f 27 b9
       -0.0018289018 -0.0126393195 -0.008063368 -0.00015985889
0001a0 6e 84 46 bb 9a 10 d2 b9 ca e8 0a bc 17 46 3b bc
       -0.0030291337 -0.0004006669 -0.008478353 -0.011430285
0001b0 c6 96 2c bb af 3a be bb f9 5c 9c ba f4 67 d2 b7
       -0.0026334985 -0.0058053355 -0.0011929563 -2.5082358e-05
0001c0 c3 f5 df b5 ca 87 47 ba ba 34 b7 bb c6 65 95 bb
       -1.6686321e-06 -0.00076114817 -0.0055910023 -0.0045592515
0001d0 86 66 80 bb d4 3d 81 b3 28 95 40 37 78 db ac b7
       -0.0039184717 -6.018277e-08 1.147882e-05 -2.0606196e-05
0001e0 f6 20 51 bb ad c5 86 ba 3a cc 38 ba 12 78 10 b9
       -0.0031910515 -0.0010282301 -0.0007049475 -0.0001377764
0001f0 1d 68 31 ba 0c 25 10 3a a9 db 2c bb 6a ea ed bb
       -0.0006767528 0.00054986845 -0.0026376045 -0.0072606103
000200 32 d4 9c 35 43 ee e3 ba 2d 59 8b b9 42 82 dc 36
       1.1684663e-06 -0.0017389733 -0.00026578587 6.571675e-06
000210 23 d3 9d b9 4c 5b 6b bb 2f 00 2d b9 2e e1 b4 b8
       -0.00030102683 -0.0035912571 -0.00016498634 -8.625012e-05
000220 d0 b9 dd b8 35 53 38 b8 7d 51 67 ba f9 f1 98 ba
       -0.000105727115 -4.394651e-05 -0.00088240934 -0.0011668793
000230 ce 5e 83 ba b7 fe 42 37 04 7b f4 36 a7 73 54 b9
       -0.0010022761 1.16226065e-05 7.2860876e-06 -0.0002026098
000240 2f 76 f4 35 46 9e 05 37 a4 65 26 b7 56 ab a2 b8
       1.8213813e-06 7.964269e-06 -9.918036e-06 -7.756676e-05
000250 3b 20 08 36 29 a7 3c b5 58 2d e8 b5 a0 f3 eb b8
       2.028434e-06 -7.027871e-07 -1.7298544e-06 -0.00011251052
000260 a5 3b ad ba 81 89 74 bb 81 73 33 ba f0 a8 3a 36
       -0.0013216628 -0.0037313404 -0.00068455195 2.7814494e-06
000270 2e 13 9f 37 24 97 31 b9 ed 1c d7 ba 97 6f 21 bb
       1.8963208e-05 -0.0001693634 -0.0016411819 -0.0024633163
000280 ae 7b 35 bb 14 6b c6 36 2e 26 87 37 00 f5 02 b9
       -0.0027692127 5.9133254e-06 1.6111033e-05 -0.00012489036
000290 30 e2 06 bb 6d 7d 79 bb 46 10 f9 bb da 1f cd b9
       -0.0020581596 -0.0038069144 -0.007600817 -0.00039124378
0002a0 18 fa 70 37 82 e8 fb 38 ab 2a cf ba cf ba 80 bb
       1.4363344e-05 0.000120119206 -0.0015805563 -0.0039285193
0002b0 21 33 ea bb eb 4f 93 ba 53 10 2a 37 b2 6a 0b 39
       -0.0071472083 -0.0011239027 1.013659e-05 0.0001329582
0002c0 5e 6b aa ba 58 f7 9a bb 86 fe c7 bb d6 96 cf b6
       -0.0013001969 -0.0047291927 -0.0061033396 -6.1866403e-06
0002d0 16 93 9a bb 1e 79 5d bb 9a f0 84 bb 7a a1 da bb
       -0.004717241 -0.0033794115 -0.0040570023 -0.0066720815
0002e0 3a 5e 0f bc 8c fa c7 bb 61 e8 aa bb c4 d9 27 bb
       -0.008750493 -0.0061028656 -0.00521569 -0.0025611976
0002f0 0b 8c 00 bb 34 16 ed bb 1f 9d 94 bb df ae 41 bc
       -0.0019614722 -0.007235313 -0.004535332 -0.011821478
000300 f7 4c c8 bb 08 b5 61 bb 7d 62 be ba 03 ac 5e bb
       -0.0061126905 -0.0034440178 -0.0014525201 -0.0033977039
000310 bc 0e 04 bb e8 1e 46 bc 90 d5 9b bb 5b bc 3c bb
       -0.0020150384 -0.01209233 -0.0047556832 -0.0028798792
000320 e1 6f 42 bb 2e df bc bb 0a b1 b8 b8 79 3f 1e bc
       -0.0029668736 -0.00576391 -8.80678e-05 -0.009658688
000330 1a 15 ae bb 6b 8e 79 39 3a 50 b9 ba f7 42 06 bb
       -0.005312574 0.00023799545 -0.0014138289 -0.0020486692
000340 3c 27 25 ba 96 51 2e bc b7 39 bd bb 07 9e 73 b9
       -0.0006300097 -0.010639569 -0.0057747024 -0.00023233156
000350 9a 90 82 ba 72 41 9f ba ab 05 b4 bb ca e3 1b bc
       -0.0009961308 -0.0012150242 -0.0054938397 -0.009514758
000360 d8 d7 0b 2b 43 06 7e ab ac 46 04 ab 48 d8 89 ab
       4.9682264e-13 -9.024762e-13 -4.69939e-13 -9.794466e-13
000370 8d e6 9e 2c 46 b5 30 ac c5 fa 16 2d 80 22 65 2c
       4.5162264e-12 -2.5111731e-12 8.582195e-12 3.2562009e-12
000380 ed c4 db 2c 87 e5 0e 2d fb f4 45 2c 37 8e 81 2c
       6.2462175e-12 8.122731e-12 2.8131375e-12 3.6821895e-12
000390 c4 ea 78 aa 72 ca 49 2b 54 55 1d ac fc c2 b4 2c
       -2.2108275e-13 7.1690494e-13 -2.2358409e-12 5.1375553e-12
0003a0 55 55 dd 2b 85 99 ac ac 2e 05 97 ac 9b fe 57 ac
       1.5726679e-12 -4.905578e-12 -4.292253e-12 -3.0694672e-12
0003b0 c8 f7 92 2c c8 dc 3b ab ae 6d 87 ab dd e0 0e 2d
       4.177079e-12 -6.674214e-13 -9.622769e-13 8.121695e-12
0003c0 8c 5b 79 2b 84 f5 67 ac ad 52 98 2b fd 1a d3 2c
       8.858962e-13 -3.2963363e-12 1.0823197e-12 5.999977e-12
0003d0 7d 56 29 2d 4b 67 92 ac 94 d7 bf 2c ef 09 20 ad
       9.625742e-12 -4.1610374e-12 5.4524805e-12 -9.097153e-12
0003e0 91 ea bf 2c 0d cb 19 ac be f8 df ac 71 82 2c 2c
       5.4545886e-12 -2.1855324e-12 -6.365657e-12 2.451508e-12
0003f0 20 d7 6d ab 24 21 8c ab 68 5c 55 ad a1 32 d2 2c
       -8.449786e-13 -9.956797e-13 -1.21281665e-11 5.97418e-12

Linear_layers.0.bias f4 [128]
000000 10 c3 f5 b8 d9 9f 44 3d a1 d4 ad bc 40 9b c6 bc
       -0.000117188436 0.048004005 -0.021219553 -0.02424395
000010 10 59 8d bb 9a d3 85 ba 19 e4 bc ba af 3d db bc
       -0.0043135956 -0.0010210157 -0.001441124 -0.026762811
000020 45 a6 a6 3c 36 be fa b9 53 3b d9 37 c2 3b ed bb
       0.020342955 -0.00047825434 2.589604e-05 -0.0072397897
000030 6a f8 c4 3c 6e ec 2d 3d 52 ea eb bc 6d 48 dc 3a
       0.024044234 0.042461805 -0.028798256 0.0016806253
000040 1a f0 da bc cb 65 03 bc f7 d5 2b 3c 62 9b de 3b
       -0.026725817 -0.008019875 0.010488025 0.0067934254
000050 1f b0 2b bc fc 0b 44 ba f2 b0 1d bc a8 b6 ac bb
       -0.010479002 -0.00074785925 -0.009624707 -0.0052707978
000060 9a dc 01 3d df 03 51 3c 37 bb 2d bc 56 9c f9 b9
       0.031704523 0.012757271 -0.0106037175 -0.0004760946
000070 5f 78 a9 3c bc a2 a1 bb 84 19 20 bc f8 85 20 3d
       0.02068728 -0.0049327295 -0.009771708 0.039190263
000080 5d e4 6b 3c 22 76 c1 3a 63 7b f5 3a 00 f2 9d b9
       0.014397708 0.0014759938 0.0018728789 -0.00030125678
000090 99 96 24 3b ba 8a 07 b8 b3 b9 9a bc 4a 43 82 bb
       0.0025114177 -3.2315707e-05 -0.018887376 -0.0039753066
0000a0 39 a6 24 3c ee 07 f0 3c 72 d7 d7 3c 18 90 7c bc
       0.010049396 0.029300656 0.02634785 -0.015415214
0000b0 59 57 6a 3c 94 63 94 ba 2a db 22 bc 31 c0 93 bb
       0.014303052 -0.001132118 -0.009939948 -0.004508995
0000c0 57 7c 2e ba e6 4a 20 bb 97 c6 d7 ba 57 2e 8b 3c
       -0.00066561013 -0.0024458705 -0.0016462383 0.01698987
0000d0 93 90 9a bb b4 45 90 b9 46 2c 05 3c 9f 07 98 3c
       -0.0047169416 -0.00027517753 0.008128231 0.018558322
0000e0 49 9b 17 ba dd 65 39 3d 77 96 06 ba 1d da da bb
       -0.0005783332 0.04526316 -0.00051341153 -0.006678833
0000f0 7d 5a 98 3c 99 2f db b7 7a ab 27 3b 4a 27 ac bb
       0.018597836 -2.6128999e-05 0.0025584386 -0.005253707
000100 f2 2c 06 3d 3d 4d a7 bb fe 05 44 bc 32 37 b0 3b
       0.032757707 -0.005105643 -0.011964319 0.0053776735
000110 88 05 5f bb b3 50 42 3c 65 2c d4 bb 9d b3 21 3d
       -0.0034030396 0.0118600605 -0.006475019 0.039477933
000120 11 a7 03 bc d1 7c 3e bc 0a e5 0b bd 52 20 50 39
       -0.008035437 -0.011626438 -0.034153976 0.00019848466
000130 c4 e0 e7 b6 76 47 59 3b c2 7f fb 3a 55 00 31 bb
       -6.9105026e-06 0.0033154166 0.0019187855 -0.0027008255
000140 0b 05 5b bc 58 2c a2 bc a6 dd 9f 3a f2 54 3c 3d
       -0.013367902 -0.019796535 0.0012196794 0.045979448
000150 c1 59 e3 3c 09 39 06 bb 93 89 50 bb 26 f6 ef b6
       0.027752759 -0.0020480773 -0.0031820282 -7.1514105e-06
000160 d4 c7 23 b9 e9 6a 24 bc e6 0d 34 b8 17 73 90 3b
       -0.00015619333 -0.010035255 -4.2928288e-05 0.004408251
000170 d6 e7 24 3d a9 75 28 bb f2 a9 b2 ba 98 6c 3e 3d
       0.04026016 -0.0025704897 -0.001363097 0.04649028
000180 73 82 1f ba 92 19 3e bc ff e8 39 3d 78 7e 68 3d
       -0.0006084807 -0.011602776 0.045388218 0.056761235
000190 4a dc 9b 3c 89 03 83 bc ed b6 a9 3c 7e 4b 98 bc
       0.01902594 -0.015992897 0.020717109 -0.018590685
0001a0 0e fd 82 bb 00 e7 00 bb dc 56 0e bc 17 37 7a bc
       -0.0039974516 -0.0019668937 -0.008687701 -0.0152719235
0001b0 63 36 db bc e6 1e 09 ba b5 02 2e bc 3d b1 27 3c
       -0.026759332 -0.00052307395 -0.010620763 0.010235128
0001c0 76 78 b3 bc 85 51 83 ba 39 62 6e bb 96 6c 28 3d
       -0.021908026 -0.0010018802 -0.0036374463 0.04111918
0001d0 04 60 22 bb d1 bb d5 3c 05 39 6a ba b7 28 d5 b8
       -0.0024776468 0.026090534 -0.0008934888 -0.00010164215
0001e0 60 e6 83 bc ba f3 e6 b9 57 5d 23 3b 96 d8 c2 b9
       -0.016101062 -0.0004405061 0.002492746 -0.00037163933
0001f0 1c d8 4e bb 11 2b 65 bc 58 32 1d 3c dd 86 ee 3b
       -0.0031561917 -0.013987319 0.009594522 0.0072792605

Linear_layers.2.weight f4 [2, 128]
000000 8f 32 7e 3b 00 99 ce bd 70 a9 d9 bc b6 6b 19 3d
       0.003878746 -0.10087776 -0.026570052 0.037456237
000010 c1 8e 07 3b 32 09 ec bc a5 97 7b bd 8d f3 3b 3e
       0.0020684453 -0.028812978 -0.061423916 0.18354626
000020 0e 49 8f bc 33 62 2f 2d 61 d9 f9 3c 83 9d 61 bc
       -0.01749089 9.969403e-12 0.030499162 -0.013770464
000030 c7 f2 10 be 29 e5 50 bd d6 57 e4 3d cb ec 06 bd
       -0.14155112 -0.050999794 0.11149566 -0.032940667
000040 b4 08 05 3c 21 8b 11 3d 61 3c 07 be 82 2c 95 bd
       0.008119751 0.035533074 -0.13206626 -0.0728388
000050 c5 a7 9b bc 39 e7 4a b1 f6 5f bb 3d 79 25 28 3a
       -0.019000897 -2.9526304e-09 0.091491625 0.0006414275
000060 86 55 f1 bd 75 52 96 3c 55 3e 1b bc 64 9f 5e bb
       -0.117838904 0.018349865 -0.00947531 -0.0033969516
000070 fa 5e 97 bb f3 a5 a9 b5 05 3f d0 3a be 55 39 bc
       -0.0046194764 -1.2639779e-06 0.0015887922 -0.011311946
000080 0d ca 13 3c ea 8a d7 bc ca a9 03 3c 7e b0 62 3c
       0.009020341 -0.026311357 0.008036086 0.013836024
000090 22 13 40 3d dc 5b 88 3b 3b 77 9b 3c 18 d7 ac ae
       0.046893246 0.004161341 0.018977752 -7.859863e-11
0000a0 5a 6e b7 bd fe fa 25 bd 11 3c fb bd 57 60 fb 3a
       -0.08956595 -0.040522568 -0.12267316 0.0019178492
0000b0 99 71 22 3c e8 b8 eb bd 43 9f 87 bc b3 f1 94 bc
       0.009914779 -0.115098774 -0.016555434 -0.018181657
0000c0 c3 7a 5c 3d 4c 45 04 b7 35 09 bb 2e 25 37 c4 bd
       0.053828012 -7.883948e-06 8.505411e-11 -0.095808305
0000d0 71 44 63 3d af 58 c9 bb 41 2c 2a bc 9f 65 29 bd
       0.055485193 -0.006144605 -0.0103865275 -0.04135668
0000e0 62 78 95 2e d4 71 ae bd 89 22 18 bc ce 28 8f 3a
       6.79712e-11 -0.08517805 -0.009285578 0.0010922195
0000f0 f7 77 7e bd b6 1c 26 3c 54 42 ff bc 47 d7 5c 3d
       -0.062126126 0.010138681 -0.031159557 0.053916242
000100 3d 78 dd bd b9 87 3b 3d d0 1e 19 bc fb aa 1a 3d
       -0.10813949 0.045783732 -0.009345725 0.037760716
000110 07 1a 3c 3c a9 bc db bd 74 f6 df bb 4e a1 49 bd
       0.011480815 -0.107293434 -0.0068347994 -0.049226098
000120 94 35 5f bc 56 00 c1 38 d8 de 9b 3d 55 2a 89 3b
       -0.013623614 9.20302e-05 0.076108634 0.0041859546
000130 ae 61 24 2d 44 83 44 3c 2e 20 f9 3c c1 b0 a4 b0
       9.34401e-12 0.011994187 0.030410852 -1.1982807e-09
000140 2a e1 92 3d 5f a5 67 3c 30 b9 83 3b 5f 15 c0 bd
       0.07171853 0.014138549 0.004019879 -0.09379076
000150 76 ff 09 bd fb 4d bc 3c 7d 77 fe bc df 00 89 bb
       -0.033690892 0.022986403 -0.031062836 -0.004181012
000160 68 7b 63 b8 46 26 b6 3c 2e 7e b1 ab 45 e5 d8 bd
       -5.423595e-05 0.022235047 -1.2611628e-12 -0.10590605
000170 26 a1 e1 bc 9f 25 9f b0 61 b5 9b 3c 01 b4 66 bb
       -0.027542662 -1.1579465e-09 0.019007387 -0.0035202506
000180 25 5f cf 3b 01 17 8b 3c 11 4d ae bd ad 3a 06 be
       0.006328481 0.016978743 -0.08510793 -0.1310832
000190 9a 40 dd 3d 21 55 8b ba 51 db d6 bd 5e 21 64 3d
       0.108033374 -0.0010630229 -0.1049105 0.055695884
0001a0 bc dc 86 af f8 c0 5f 3c 9a 2a 17 38 10 ad a7 3d
       -2.45313e-10 0.013656847 3.604088e-05 0.08187306
0001b0 a5 31 6a 3c c2 7c 26 3b 56 4c 52 bc e0 5c e1 ba
       0.014294063 0.0025403951 -0.012835583 -0.0017193817
0001c0 b6 5c 03 bd 2c 51 aa 31 9e 48 97 bd 35 e8 f1 bd
       -0.032070838 4.9568794e-09 -0.073868975 -0.11811868
0001d0 19 a9 eb b0 03 98 19 bd 8f 81 89 3b ba 2a c2 3c
       -1.7146561e-09 -0.037498485 0.004196353 0.023702014
0001e0 f2 a4 1d 3d 3f 8c 58 bd 75 ca cb bc 38 b1 90 bc
       0.038487382 -0.052868124 -0.024876812 -0.01766263
0001f0 3b 50 fd 3c d1 b0 07 bd 76 8d 6a ba 4f 77 1f bc
       0.030922046 -0.03312761 -0.0008947471 -0.009733035
000200 3c cf 2f bc 6a c8 ed 3d 0e 33 fd 3c 1e 15 87 bd
       -0.010730561 0.116104916 0.030908134 -0.06595825
000210 02 f3 12 bb ac 20 22 bd 70 88 82 bd dd 76 c2 bd
       -0.0022422676 -0.03958194 -0.0637368 -0.094953276
000220 a6 fe 71 3d 9c 36 35 30 d5 1a 8b 3b 00 41 aa bc
       0.059080742 6.592502e-10 0.004245142 -0.020782948
000230 77 fb c4 3d 2d ad f4 3d 2e b6 56 bc f9 13 33 bd
       0.096182756 0.11947093 -0.013104958 -0.04372022
000240 1a c6 ae bd c8 69 5c 3d 71 98 3f bc 68 27 38 bc
       -0.085338786 0.05381182 -0.01169406 -0.011239864
000250 e3 cf 54 bc 25 8d 31 b1 73 e5 1f bc 20 7e 19 3d
       -0.012989017 -2.5837121e-09 -0.009759295 0.037473798
000260 d7 fb 65 3d 36 48 b6 bc a2 e6 19 3c b7 35 3e 3c
       0.056148376 -0.02225123 0.009393366 0.011609486
000270 07 80 e7 3d e2 21 0f 39 87 65 69 bc 6c 6f be 3d
       0.11303716 0.00013650165 -0.014245397 0.09298596
000280 51 b3 99 bc 14 57 09 bd c8 2b 8f bd 46 e7 9c 3c
       -0.018762263 -0.03353031 -0.069907725 0.019153249
000290 1a f0 aa 3c 47 e8 59 bb d7 a3 0f bd f2 7b 34 ad
       0.020866442 -0.003325002 -0.03506836 -1.0259337e-11
0002a0 5c ad c5 3c 05 da f2 3d c8 53 e9 3d 2e 96 17 ba
       0.024130516 0.1185799 0.11392933 -0.00057825714
0002b0 05 17 54 bc 10 64 2e 3d b3 f0 d0 bb 22 57 88 bc
       -0.012944941 0.042575896 -0.00637635 -0.01664311
0002c0 13 e6 0b 3d 26 76 24 b9 5b 13 05 af 3b 4b 4e 3a
       0.034154963 -0.00015684273 -1.2103156e-10 0.00078694866
0002d0 69 7c 19 bd b0 d1 ab 3b 2e 92 1a bc 36 30 d1 3d
       -0.037472162 0.0052435026 -0.009434266 0.10214274
0002e0 38 ce 49 ad 43 56 dc 3c 84 c9 12 3c e2 e3 03 3a
       -1.1471317e-11 0.026896602 0.008959178 0.00050312106
0002f0 fc d1 d7 3d 25 9d 25 bc 42 d1 b2 bc 2a 3a 29 bd
       0.10538098 -0.010108267 -0.021828298 -0.041315235
000300 ef c0 1c bd 86 cf b2 3b ab 9d 8d bb ef 18 1c 3d
       -0.038269933 0.0054568676 -0.004321774 0.038109716
000310 32 ee d5 ba 90 07 01 bd eb fb 85 bc 00 53 12 3e
       -0.0016321598 -0.031501353 -0.016355475 0.14289474
000320 88 7c 1b 3c 22 a6 a5 3b e9 ad 0a bd eb 69 75 3b
       0.00949014 0.005055205 -0.03385726 0.0037447165
000330 42 e0 27 2e c5 a2 7a bc e7 56 66 3c a6 21 fc ac
       3.8170585e-11 -0.015297596 0.014058805 -7.1660065e-12
000340 f0 bf 2f bd 78 1c 65 bd f4 72 66 3d f9 30 d6 3d
       -0.042907655 -0.055935353 0.05626197 0.104585595
000350 2c 90 99 3d 61 0f 27 3c 52 ac a2 bc e6 04 a6 3b
       0.07498202 0.010196538 -0.01985756 0.005066502
000360 f6 f5 58 38 54 61 ae bd 8f 9f 02 ad 0a ba 84 3d
       5.1727482e-05 -0.085146576 -7.425074e-12 0.06480797
000370 88 73 e2 3d f0 21 ed 2e 6b ee 5f 3c 38 a3 9b 3d
       0.11057192 1.0783541e-10 0.013667683 0.07599491
000380 b3 42 8d 38 09 ea f5 bc b3 a0 15 3e 40 42 81 bc
       6.7358276e-05 -0.030018823 0.14612083 -0.01577866
000390 aa ba 7f bc 46 69 50 bc 86 65 3a 3d 66 45 06 3b
       -0.015608469 -0.012720412 0.045506977 0.0020488142
0003a0 26 43 43 ab b0 a0 15 3c 42 ea 80 35 36 ef 95 3c
       -6.9371104e-13 0.009132549 9.604921e-07 0.018302541
0003b0 79 17 72 bc 39 9f 81 3b f5 a7 58 3c 3d da 4f bb
       -0.014776104 0.0039557484 0.013223638 -0.0031715774
0003c0 01 9a 49 3d 87 a6 8e 2f 25 7c 0f 3d 3a 02 03 3d
       0.049219135 2.5947974e-10 0.035030503 0.031984545
0003d0 ad 09 12 33 52 19 92 3d 00 a5 cc 3b 07 11 05 3d
       3.4002074e-08 0.07133736 0.0062452555 0.03248694
0003e0 8c 2e d4 bd 0b 72 ba 3d 72 03 c0 3c 16 53 6e bc
       -0.103604406 0.09103783 0.023439143 -0.014546176
0003f0 8a bb db bd e1 c6 94 bd 92 c6 b8 3b c6 d4 34 3d
       -0.107291296 -0.07264496 0.005638906 0.04414823

Linear_layers.2.bias f4 [2]
000000 b5 bc 8c 3c 07 25 79 bd
       0.017179826 -0.060826328
